backend/gnn_trained.pth (torch, 4485 bytes, 6 tensors)

conv1.bias f4 [16]
00000000: 0000 0000 0000 0000 5b14 4cbd 0000 0000
00000010: 2310 883e 832e 683e 1fe9 343e 8598 c2bd
00000020: 208c 593e 0000 0000 0000 0000 0cbf 543e
00000030: 0000 0000 2669 553e 0000 0000 0000 0000
0.0 0.0 -0.0498241 0.0 0.2657481 0.22673993 0.17667054 -0.09501747
0.2124486 0.0 0.0 0.20776004 0.0 0.20840892 0.0 0.0

conv1.lin.weight f4 [16, 1]
00000000: 0c0d 0ebf 03d5 20bc 2f80 7e3b c2b9 a2be
00000010: f3ba 563e d870 2f3f 88e4 db3d ab49 7c3e
00000020: a284 1e3f fd6b 20be 8acd ccbd bb11 cf3e
00000030: 9c90 c4be a8de 103f 5f44 4ebc 7540 cbbe
-0.5548866 -0.009816411 0.0038833728 -0.31782347 0.20969753 0.6853156 0.10736948 0.24637477
0.6192113 -0.15666194 -0.10000141 0.40443215 -0.38391578 0.56589746 -0.012589543 -0.39697614

conv2.bias f4 [16]
00000000: 0000 0000 2aa8 5e3e 0000 0000 0000 0000
00000010: 0000 0000 0000 0000 9d66 3d3e 0000 0000
00000020: e009 7c3e 6853 473e 0000 0000 9998 ebbc
00000030: a82b 4d3e c1d4 493e 49c3 433e 0000 0000
0.0 0.21743837 0.0 0.0 0.0 0.0 0.18496175 0.0
0.24613142 0.1946541 0.0 -0.028759288 0.20036185 0.19710065 0.19117464 0.0

conv2.lin.weight f4 [16, 16]
00000000: b56d 773e 1a2c 453e 767c 6ebe 21b9 143d
00000010: f48f adbe 8eac d7bd cb05 c4be 208e c83e
00000020: d24e b8bd 42ba b73e c7ca d8bd e9b4 c3be
00000030: 5343 b2be 1eb0 bbbd bc35 3dbe 11c4 08be
00000040: 8adf adbb 8144 af3d 0d68 d43e 7062 6d3e
00000050: 3548 893e 4c5b f03e b5f0 c93d 901d a7bd
00000060: dba6 9c3e 4fe9 86bc f92d 8a3d abe8 ac3e
00000070: 3ca0 a7be 9873 b23e 57eb 32be c629 ae3d
00000080: 2615 883e bc11 b23c 48b4 b5bc 377b 32be
00000090: 1091 503b 4486 b6bd 42f8 8cbe 1b95 88be
000000a0: f928 71be 6315 873e e230 9f3c fddc ef3c
000000b0: d59c 7b3e 0579 313e 2d20 933e a4dd 88be
000000c0: 08fd 923e efbe 7c3e 33bc 8b3e 8485 5c3e
000000d0: 0ee3 91be 6009 a83d cf08 833e e20b c3bd
000000e0: 4bd3 9dbe dc2c d2be ad5e 8cbe 3785 c5be
000000f0: 8891 0ebe 1bbe c2bd f1e6 183d 3b97 abbe
00000100: 5afd d8be dedf 80be 3336 8ebe 083b 773e
00000110: 4749 a4bd ac6d adbe 8560 91be 5fd4 c73e
00000120: db12 bcbe fb09 1a3e ceb0 f1bd 60ec 963e
00000130: e104 f03d ba3e 493e e497 bf3d acc8 2dbe
00000140: 2748 f4bd 1b06 d2bc ca5e 96be 1ae7 fa3d
00000150: fd1c dd3e 04b1 90be 84c6 d7be 9180 0cbe
00000160: 123a b43d a59d dc3e 6545 9cbe e09c b1bd
00000170: e197 7bbd 21f7 b4be 25b4 8abe a55a bfbe
00000180: 0837 20be 5209 b23d 2a4b afbe 79d7 c43e
00000190: 5740 f1bd 805d 8e3e 1f10 263e fb0f acbe
000001a0: b928 093f bcb2 90be 4be0 80be c641 033f
000001b0: 006f 4f3d 8d37 a23e b3a2 75be 3162 8cbe
000001c0: ac64 6e3e 5348 01be a227 d4be 8099 8bbe
000001d0: 3392 143e decd 28be e3aa 66be 34ad b53e
000001e0: 422f 413e 37c1 b5bd e5ed 83be 2ff9 76be
000001f0: a736 04be 46ea 52be 64d1 64be 3d1b 04be
00000200: b686 b13d d99e b03e 1587 f93e 9055 d63e
00000210: 1e8b 9f3e d782 c13e c6be bebd da87 073f
00000220: 88fe 0c3d 89b0 abbe 2b2e c7bc 74b5 c43d
00000230: b579 adbe b661 48be 24f0 22be ed4d 813d
00000240: c330 723d 3c61 66be f6bf 25be bb41 7fbe
00000250: dc61 ad3e 32ae 913e e5bd f13e 0794 ec3d
00000260: 8dea 503e def2 74be 42d6 8abe 1b33 af3e
00000270: d0c1 473e d6df 083f 662f 9b3d 2a15 8c3d
00000280: be5b 93be 029b 903e 9c0f 34be 5433 a4bd
00000290: 715f adbe 48e8 6bbd 4626 d03e 8c39 543e
000002a0: cbb7 9fbe 59ef 0cbe c9c8 b3be 9469 c6bc
000002b0: 5f40 523e ed70 003d 082b bd3d 28de 9a3e
000002c0: 7f24 743e 2cfb 7b3e c701 e93c f867 313e
000002d0: a2bd 3abe 74e6 4ebd e14f 7d3e 9b7f 313e
000002e0: 0c17 eabd 14e9 493e f326 8ebe 34fe bfbe
000002f0: 515e 4dbe cbce 913e 12ed 93be 52ee d2be
00000300: 0e74 9dbe b800 83be 4bdb 19be 7372 cabe
00000310: 71d8 843e ddab 39be 003c 3fbe 2e39 20be
00000320: ff79 d03e 761e 8cbe b29e 513e 4ec3 f23e
00000330: 922f 03be 69fc b33e 6166 1bbe 9022 b2be
00000340: e506 c63e 027f bd3e 662c b63e f2fe 82be
00000350: 3eb4 a13e 0bd9 9e3e 73e5 d03b 35b9 65be
00000360: e582 85be 0d91 803e d3d9 b9be 9491 b33e
00000370: f0f4 c8bb 07bf 073f b5c9 7cbe 009f 50be
00000380: 53da 62be 4b31 7d3d 309b 6c3d be6f 8dbe
00000390: 23b1 68be 90d8 16bd 4509 cc3e 9a0f 8bbd
000003a0: 6264 273e 1803 b8be 6d29 4b3d aa94 023f
000003b0: 0c27 ab3e ec38 ff3e 540c c03e f983 e9bd
000003c0: 5b15 213e c1f6 9cbe 5681 da3e 1423 05be
000003d0: 8559 9abd e736 84be 4ac4 a7be 7574 4dbe
000003e0: 17eb efbd df39 92be ab58 a5be 714b d53d
000003f0: b3a3 aa3e a025 cebe 51a1 b1be 6b59 a3bd
0.24162944 0.19255105 -0.23289666 0.036309365 -0.3389889 -0.10530959 -0.3828567 0.39170933
-0.08999409 0.3588429 -0.10585552 -0.3822396 -0.3481699 -0.09164451 -0.1847753 -0.13356043
-0.005306189 0.08557988 0.41485634 0.23182082 0.26812902 0.46944654 0.09860364 -0.081599355
0.3059605 -0.016468672 0.0674705 0.33771262 -0.32739437 0.34853816 -0.17472588 0.085040614
0.26578635 0.021736972 -0.022180691 -0.17429815 0.0031824745 -0.08912328 -0.27533156 -0.26676258
-0.23550786 0.26383504 0.019432489 0.02928018 0.24571545 0.17331322 0.28735486 -0.26731598
0.28708673 0.2468221 0.27292022 0.21535307 -0.2849354 0.08204913 0.25592658 -0.09523751
-0.30825266 -0.4104985 -0.27415982 -0.38578197 -0.13922703 -0.09508916 0.037329618 -0.33513817
-0.42380792 -0.25170797 -0.27775726 0.24143612 -0.08021789 -0.33872736 -0.2839395 0.39029214
-0.36733136 0.1504287 -0.11801301 0.29477215 0.117196806 0.19652835 0.09355143 -0.16971081
-0.119278245 -0.025637677 -0.29369193 0.122511104 0.4318618 -0.28260052 -0.42143643 -0.13720919
0.088001385 0.43089023 -0.30521694 -0.086725 -0.06142414 -0.35344794 -0.27090564 -0.37373844
-0.15645993 0.08693184 -0.34237033 0.38445643 -0.1177985 0.2780571 0.16217087 -0.33605942
0.5357776 -0.28261364 -0.25171122 0.5127224 0.050642967 0.31683007 -0.23987846 -0.27418664
0.23280591 -0.12625246 -0.41436487 -0.2726555 0.14508896 -0.16484782 -0.22526126 0.35483706
0.18865684 -0.088747434 -0.25767437 -0.24118493 -0.12911473 -0.2059718 -0.22345501 -0.12901016
0.08668272 0.3449619 0.48735872 0.41862154 0.31160825 0.37795135 -0.09313731 0.5294167
0.034422427 -0.33533123 -0.024314007 0.09604922 -0.33881918 -0.19568524 -0.15911919 0.06313691
0.059128534 -0.2249803 -0.16186509 -0.24927418 0.33863723 0.28453213 0.4721519 0.115516715
0.20401974 -0.23920771 -0.2711659 0.34218678 0.19507527 0.53466547 0.075774 0.06839974
-0.2878093 0.28243262 -0.1758408 -0.080176026 -0.3386188 -0.057594568 0.406542 0.20725077
-0.3119491 -0.13763179 -0.35114124 -0.024220265 0.20532368 0.031357694 0.09236723 0.30247617
0.23842047 0.24607533 0.02844323 0.17324817 -0.18236402 -0.050512746 0.24737503 0.17333834
-0.11430177 0.19717818 -0.2776409 -0.3749863 -0.2005551 0.28478083 -0.28891808 -0.4119745
-0.30752605 -0.25586486 -0.1502506 -0.39540443 0.25946382 -0.18131967 -0.18675232 -0.15646812
0.40718076 -0.2736699 0.20470694 0.4741463 -0.12811115 0.3515351 -0.15175773 -0.34791994
0.38677135 0.37010962 0.35580748 -0.25585133 0.31582826 0.31024966 0.0063750087 -0.22433932
-0.26076427 0.25110665 -0.36299 0.35072005 -0.0061327145 0.5302586 -0.2468632 -0.20373154
-0.22153597 0.061814588 0.057765186 -0.27624315 -0.22723822 -0.036827624 0.39850822 -0.06790085
0.16346887 -0.3593986 0.049600054 0.51008093 0.33428228 0.49848115 0.37509406 -0.11402125
0.15730803 -0.30657008 0.426768 -0.13001662 -0.07536606 -0.25823137 -0.32766944 -0.20063956
-0.11714762 -0.28559777 -0.3229421 0.1041478 0.33328018 -0.4026308 -0.34693387 -0.079760395

lin.weight f4 [2, 16]
00000000: d09c e0bc e2aa 2e3c b4bc 633e 44d8 30be
00000010: 5806 243e 583b 02be b975 abbe 707d 613e
00000020: 6337 1abe 9178 b5be 40c3 3abd 91b6 f63d
00000030: 8f85 50be 0d3f c8be fcb4 32bd 08ce 74bd
00000040: d8bb 043e c247 823e cccf 9cbd e8a0 113d
00000050: a46b 953d 12c7 753e 00ec a43e 0cb9 58be
00000060: d533 5d3e e1c1 103e 607d 8c3c 93f3 7bbd
00000070: b21e 953e 9d25 463e e9d5 1f3e a801 14be
-0.027418524 0.010660859 0.22239953 -0.17269999 0.16018045 -0.1271795 -0.33488253 0.22020507
-0.15060191 -0.35443547 -0.04559636 0.120465405 -0.20363449 -0.39110604 -0.04362963 -0.0597668
0.12962282 0.25445372 -0.076568216 0.035553843 0.072959214 0.2400172 0.32211304 -0.2116434
0.21601804 0.14136459 0.017149627 -0.061511587 0.2912498 0.19350286 0.15608944 -0.14453757

lin.bias f4 [2]
00000000: cda2 3bbe cf8f ed3c
-0.18323822 0.028999237
