backend/gnn_trained.pth (torch, 4485 bytes, 6 tensors)

conv1.bias f4 [16]
000000 6e 9a 23 3e 57 a2 bb 3b 7b 59 2d 3e c4 7f 26 3e
       0.15976879 0.0057261395 0.16928665 0.16259676
000010 00 00 00 00 00 00 00 00 00 00 00 00 12 47 cc 3d
       0.0 0.0 0.0 0.09974493
000020 00 00 00 00 00 00 00 00 af 94 01 3e 00 00 00 00
       0.0 0.0 0.12654375 0.0
000030 da e0 26 3e 0f dd 10 3e 00 00 00 00 00 00 00 00
       0.16296712 0.14146827 0.0 0.0

conv1.lin.weight f4 [16, 1]
000000 73 21 70 3e d2 39 18 3f 74 8a ab 3e bd cd 8e 3e
       0.2345026 0.59463227 0.3350407 0.2789134
000010 50 42 08 bf 04 7e 4f be ec ee 14 bf 15 fb e5 3e
       -0.53226185 -0.20262915 -0.58177066 0.44918123
000020 d7 65 f5 be 8d 8f 8d bc c0 da 25 3f 0e de 59 be
       -0.4792926 -0.017280364 0.6478691 -0.21276113
000030 a7 78 0f 3e b7 42 26 3f 86 dd 12 be e0 c2 17 bf
       0.14010869 0.6494555 -0.14342317 -0.5928173

conv2.bias f4 [16]
000000 08 94 92 bd 00 00 00 00 2b 47 22 3e 6f 7d 99 bd
       -0.07157141 0.0 0.15847461 -0.07494628
000010 88 fd b4 bd 00 00 00 00 0f 74 14 3e 39 0c be bd
       -0.0883742 0.0 0.14497398 -0.09279675
000020 d1 b5 3e 3e d2 8a 2b bc 38 53 10 3e b2 41 5f 3d
       0.18624045 -0.010470109 0.14094245 0.05450601
000030 bb 42 3a 3e 65 95 0a 3e cd 7e 09 3e 30 3d ae bd
       0.18189518 0.13533552 0.13427277 -0.08507764

conv2.lin.weight f4 [16, 16]
000000 fb 30 68 be 3f 04 ca be ad 76 a6 bc 81 3e f9 3d
       -0.22674935 -0.39456365 -0.02032026 0.12170125
000010 87 13 d2 3d c5 c9 3a 3e 44 ce 6c 3d d6 a9 79 be
       0.10257631 0.18241031 0.057813898 -0.24381194
000020 b0 5c 9c be 14 d0 a5 3e 92 02 84 3e d5 50 90 3d
       -0.30539465 0.32385314 0.2578321 0.070466675
000030 c0 f5 be be 31 d5 b6 3e ff 06 26 3e 63 4f 97 3e
       -0.37296867 0.35709527 0.16213606 0.29552755
000040 a0 d3 6a be a8 ad 7c be 14 26 89 3c cf e3 f9 bd
       -0.22932291 -0.2467562 0.01674179 -0.12201654
000050 8e cc f0 3d a8 53 3e be fa 2a a7 3e be 14 89 3e
       0.11757766 -0.185866 0.32649976 0.26773638
000060 cf 13 9e be 30 e0 10 3d 5f 86 bf be bd f8 e1 bd
       -0.30874488 0.03537005 -0.37407205 -0.11033771
000070 35 d9 1b be a7 f2 bf be ba 79 0b be 37 66 59 3e
       -0.15219577 -0.37489817 -0.13620654 0.21230398
000080 47 a8 6d bc dc f3 86 be 5c 35 9a 3e 61 d5 54 be
       -0.0145054525 -0.26357925 0.30118835 -0.20784523
000090 87 0f d2 3e 6c 77 31 3d 1d 7b 5f 3e cc 79 f0 3d
       0.4102747 0.04332678 0.21824308 0.11741981
0000a0 8e ef b1 bd 0d 48 da be 20 f6 ab bd b4 b5 33 3e
       -0.086882696 -0.42633095 -0.08396554 0.17549783
0000b0 f3 12 18 3f e6 8c 80 be 03 c8 9a be e7 c0 6b be
       0.59403914 -0.25107497 -0.30230722 -0.23022805
0000c0 dd b8 15 be 7e 0d 7e 3d d1 13 35 3e 66 59 a2 be
       -0.14621301 0.062024586 0.1768334 -0.3170883
0000d0 e1 46 35 3e c8 d3 c2 be 8b 21 a3 be 7c 86 2b 3e
       0.1770282 -0.380522 -0.3186153 0.1675052
0000e0 aa eb 86 3e eb 19 39 be 78 10 73 3e e9 a3 9c 3e
       0.26351672 -0.18076293 0.23736751 0.30593804
0000f0 14 53 c9 be 24 20 8b be 36 09 2d be e0 a7 4a be
       -0.39321196 -0.2717296 -0.16898045 -0.19790602
000100 bb 79 0f 3e 56 64 84 be b5 48 89 be f0 9c 37 3e
       0.1401128 -0.258578 -0.26813284 0.1793096
000110 cf ae a7 3e 83 b5 86 3e 6d 77 20 be 32 c5 82 3e
       0.32750556 0.26310357 -0.15670557 0.25541073
000120 b6 01 8c 3e fd bd c6 be 41 37 0d 3d 75 75 02 be
       0.27345055 -0.38816825 0.034476522 -0.12740119
000130 f6 7a ce be 8c 35 14 3e 0e c6 6a 3d f1 91 ae be
       -0.40328187 0.14473552 0.057317786 -0.3409572
000140 c8 a4 c1 be ce a8 ad 3e 8a 62 52 be e1 a3 32 bd
       -0.3782103 0.3391785 -0.20545402 -0.04361332
000150 31 af 23 be b9 bc be 3e 17 83 db 3e 03 ff 1d be
       -0.15984799 0.3725336 0.4287345 -0.1542931
000160 b0 8f 83 3e bf 34 e4 3d 40 1b ac be 56 d5 eb bc
       0.25695562 0.11142873 -0.3361454 -0.02878825
000170 ea c7 be be c8 15 3c 3e 0c 23 14 3e 92 0d 57 3e
       -0.37261897 0.18367684 0.14466494 0.2100127
000180 03 37 b3 3e e8 da 6b be 85 f0 9d 3c a8 7d 51 bd
       0.35002908 -0.23032725 0.019279728 -0.051145226
000190 45 87 c0 3e 4d 31 31 3e 99 f0 62 be 88 15 97 3e
       0.37603202 0.17303963 -0.22162093 0.29508615
0001a0 6e 84 bc 3e b0 22 95 3e b9 54 d2 3e 96 d6 8b be
       0.36819786 0.29128027 0.41080263 -0.27312154
0001b0 7e 63 f7 3e bd 27 af bd fe 82 c5 be 57 8d 98 be
       0.48318094 -0.08552501 -0.38576502 -0.29795334
0001c0 b6 57 1e 3e e3 bd d4 be d4 84 45 3d a1 3e a2 3d
       0.15463147 -0.41551122 0.048222378 0.07922102
0001d0 15 80 cb bc ab f0 8c be 34 dc 33 3e 52 43 3e 3d
       -0.024841348 -0.27527365 0.1756447 0.04645092
0001e0 d3 8a b2 be ab 0b ad 3e 79 29 68 bd 46 8a 3c be
       -0.3487154 0.33797964 -0.056680176 -0.18412122
0001f0 17 e4 80 3d b2 c0 89 3e 61 e7 3b bc 87 b0 0b be
       0.06293505 0.26904827 -0.011468739 -0.13641559
000200 34 4b fd 3e 3d 92 85 3e 4d 45 57 3c e3 2a f5 3d
       0.49471438 0.26088133 0.013139081 0.119710706
000210 83 41 9b be d8 ab 91 be 2c bc b0 3e a7 fc 60 3e
       -0.3032342 -0.2845142 0.34518564 0.21971379
000220 06 01 ab be c9 c2 a5 3e 7a 9a a6 bd ea 7e 83 3e
       -0.33399218 0.32375172 -0.08134933 0.25682765
000230 bf 0f a0 3e e6 b4 19 3f d1 fd b1 3e a9 fa 61 be
       0.31262013 0.60041654 0.3476396 -0.22068276
000240 4a 01 a9 be fd 82 d9 be b7 df 81 bd ac 0b 67 3e
       -0.33008796 -0.4248275 -0.06341498 0.22563046
000250 b3 c5 7e be b1 c0 c9 3e dc 43 9f be 28 35 50 bd
       -0.24880104 0.39404824 -0.3110646 -0.050831944
000260 7e bc 51 bc 98 06 dd be d6 f2 44 be 63 9a 9a bd
       -0.012801288 -0.43169093 -0.1923326 -0.07548978
000270 fa d5 e7 3d 89 3a 6b 3d 16 b8 bd 3e 3d 96 20 3e
       0.1132011 0.05742887 0.3705451 0.15682311
000280 a4 93 08 3f c0 7d 8d 3e 74 07 a0 3e 6b 6c 61 bd
       0.5335028 0.27635002 0.31255686 -0.055035036
000290 08 4a 84 3e fc 00 be be 77 22 38 3e 03 e2 f2 3e
       0.2583773 -0.37110126 0.17981897 0.47438058
0002a0 4d 65 86 be 4a 9e 6b 3e 26 b0 4f 3e 4d bd be be
       -0.2624916 0.23009601 0.20282039 -0.372538
0002b0 7c 6f 0c 3d c6 8a 52 be 83 9c 96 be ba 5d 2c 3d
       0.034286007 -0.2056075 -0.29416284 0.042081572
0002c0 07 f3 38 3c 6c 5a 89 3e 09 fc 69 be ff a5 ad 3e
       0.011288411 0.268268 -0.2285005 0.33915707
0002d0 7d 2a 1e be 90 21 ac bd 7b c8 87 be 6a d8 a3 be
       -0.15445895 -0.08404839 -0.26520142 -0.32001048
0002e0 0f 6f 74 3e b8 0d 80 be 95 07 bb 3e 3b 66 66 bd
       0.2387049 -0.25010467 0.36529222 -0.05624984
0002f0 7c 10 83 3d a6 5f c1 3e db 7b 79 3e 41 f5 7f 3e
       0.063996285 0.37768286 0.24363653 0.249959
000300 82 8c 86 bd ac 79 e3 3e cb c7 a3 bd 6f c6 82 3e
       -0.065697685 0.44428766 -0.07997092 0.25542018
000310 8a d1 ae bd ba 81 b8 3e 6a 31 70 3e 11 0c fb 3e
       -0.0853606 0.36036474 0.2345635 0.49032643
000320 81 5c b7 be 47 c0 27 be f1 8b cd 3e 74 65 7f 3c
       -0.35812762 -0.16381942 0.4014583 0.015588153
000330 9b e1 34 3c 7f 57 27 3e 42 33 09 be 61 f9 a5 3e
       0.011040117 0.16341971 -0.1339846 0.32416824
000340 40 45 84 3e 15 dd 12 3e 44 b4 b2 3d 51 fb 34 3e
       0.25834084 0.14342149 0.08725789 0.17673995
000350 c4 cd c7 be 27 c0 1c bb c4 ad 58 3e 3f 40 eb 3d
       -0.39024174 -0.0023918243 0.21160036 0.11486863
000360 c9 a1 a6 3e 6f c6 12 3e d9 ef a0 3e fe 2f db 3e
       0.32545307 0.14333509 0.3143299 0.42810053
000370 e6 e5 8b 3d 2e 10 ec 3e f9 61 c2 3e 7f bc e4 bd
       0.06830959 0.46106094 0.37965372 -0.11168765
000380 22 3c fe bd ac 75 92 be 85 33 11 3f b1 cb 0c 3f
       -0.12413813 -0.28605402 0.5671924 0.5499831
000390 03 91 2c 3e c1 c1 c9 be 4f 7d 6d be ea dc 20 bd
       0.16852193 -0.39405635 -0.23192333 -0.03927318
0003a0 14 e5 79 bc 47 7b c8 be e4 7a cd 3e e8 95 4d 3e
       -0.01525237 -0.39156553 0.4013282 0.20076716
0003b0 3e 13 16 3f 26 65 fc 3e 22 02 75 be 5a d8 7d 3e
       0.5862311 0.4929592 -0.23926595 0.24789563
0003c0 08 54 42 3c 9e 2c 4b be eb fb 77 3e 2e 1a ec 3d
       0.011860855 -0.19841239 0.24217193 0.11528431
0003d0 d0 05 34 3d 4a 94 32 bd a9 6a a4 3e b4 e4 ff 3d
       0.043950856 -0.04359845 0.32112625 0.124947935
0003e0 6b 7c 88 be 20 22 96 3e 45 32 9a 3c 22 88 8a 3e
       -0.26657423 0.2932291 0.018822799 0.27056986
0003f0 ea 6f 18 3c 2a cf 1a 3e 52 14 3a 3d 47 ab 5b be
       0.009304026 0.1511809 0.045429535 -0.21452056

lin.weight f4 [2, 16]
000000 34 bd 93 3d 68 76 1f bd e0 98 44 be 73 cd 18 3e
       0.07213822 -0.03893128 -0.19198942 0.14922123
000010 f5 41 09 3e 58 26 1e 3e c9 93 f2 be 6f c3 c7 bd
       0.13404067 0.15444314 -0.47378376 -0.09754073
000020 b8 ed 87 be 6c 6a b1 bc 81 d6 f8 ba 2d 36 71 be
       -0.26548553 -0.021657191 -0.0018984826 -0.23555823
000030 33 f7 82 be 46 16 e9 bd 24 b2 74 be 0d 5a 71 3a
       -0.25579223 -0.113812014 -0.2389608 0.0009206839
000040 45 d8 b2 bd 76 0e 3c be 3c 15 64 3e 5f a2 03 be
       -0.087326564 -0.18364891 0.22273725 -0.12854908
000050 d6 9c c3 bd 38 eb 05 3d a1 3b bb 3e 1d 2d 10 be
       -0.095513985 0.032695025 0.3656893 -0.1407971
000060 26 43 2c 3e 8a c2 e9 bd 6b e1 90 3e 19 b3 41 3d
       0.1682249 -0.114140585 0.2829698 0.04728994
000070 a1 a6 0f 3e 9f 53 87 3e ff c4 9b 3e 02 ce a9 bc
       0.14028408 0.26430985 0.30423734 -0.020728115

lin.bias f4 [2]
000000 4d aa 02 3c ec 19 c8 ba
       0.007975173 -0.0015266514
