backend/gnn_trained.pth (torch, 4485 bytes, 6 tensors)

conv1.bias f4 [16]
000000 87 03 76 3e 00 00 00 00 fc ef 6d 3e 8b d0 7a 3e
       0.24024783 0.0 0.23236078 0.24493615
000010 00 00 00 00 00 00 00 00 09 88 32 be 00 00 00 00
       0.0 0.0 -0.17434706 0.0
000020 00 00 00 00 00 00 00 00 79 d2 2a be 00 00 00 00
       0.0 0.0 -0.16681851 0.0
000030 0b 77 76 3e 00 00 00 00 cc 66 f3 bd b4 89 70 3e
       0.24068849 0.0 -0.11884841 0.2349003

conv1.lin.weight f4 [16, 1]
000000 d1 f6 03 3f 02 99 0b bf 8e 93 27 3f aa d2 12 3f
       0.51548487 -0.54530346 0.65459526 0.573527
000010 1f b1 d5 bd 29 de 70 bd 98 60 33 3e 14 d6 0d bf
       -0.10434174 -0.05880562 0.17517316 -0.5540478
000020 bd b2 c0 be 28 a1 0f bf a5 3d fa 3d 99 d1 87 be
       -0.37636366 -0.5610528 0.12218789 -0.26527098
000030 e8 ed f9 3e 89 e2 9b be 0e d6 27 3e 50 e4 0b 3f
       0.4881432 -0.3044627 0.16390249 0.5464525

conv2.bias f4 [16]
000000 b2 a6 d6 bc 39 d6 43 bc 00 00 00 00 00 00 00 00
       -0.026202533 -0.01195293 0.0 0.0
000010 e9 97 13 bc c5 15 b6 bd 00 00 00 00 00 00 00 00
       -0.009008386 -0.08890871 0.0 0.0
000020 00 00 00 00 f6 68 4d bd 00 00 00 00 00 00 00 00
       0.0 -0.050148927 0.0 0.0
000030 1e 19 49 3e 8a 9c 24 bd 4a 0d 8e bc 9f 72 8d 3e
       0.19638488 -0.04018835 -0.017340321 0.2762651

conv2.lin.weight f4 [16, 16]
000000 bf 4d 37 be 41 a1 06 3e 8f 89 1d 3e 66 ae da be
       -0.17900752 0.13147451 0.15384506 -0.4271118
000010 1c 8c 74 3b 2c b1 aa be c2 db 74 be ba 69 cb bd
       0.0037314957 -0.33338296 -0.23911956 -0.09932275
000020 c0 7b b3 be 6c ba d9 be a2 bf de 3b 1f e7 33 3e
       -0.3505535 -0.4252504 0.0067977468 0.17568634
000030 27 23 b5 3e 5e 64 ad be 12 3f 57 3e f0 7a 03 3e
       0.35378382 -0.33865637 0.21020153 0.12839866
000040 ce f3 88 be 14 70 af bd 74 47 8f 3e cf eb 48 be
       -0.26748508 -0.08566299 0.27984202 -0.19621204
000050 9d ec 1b 3e 7f 71 99 3e 94 3c 8e be 1e a8 3d 3e
       0.1522698 0.29969403 -0.27780592 0.18521163
000060 36 aa 63 be 01 59 b9 be e4 b3 5a be ca 29 89 be
       -0.22232899 -0.36200717 -0.21357685 -0.26789695
000070 89 0e 34 be e5 22 ae be d7 be ef bc e2 0d 9c 3e
       -0.1758367 -0.34010997 -0.029265804 0.30479342
000080 ca 48 bb bd 2f b5 c8 3e de 47 9e 3e 30 2c cb bc
       -0.09144743 0.39200732 0.30914205 -0.024801344
000090 bd 8d 46 be 15 5e bf 3c 7b af 83 be f4 d3 84 3e
       -0.19390006 0.023360291 -0.25719818 0.25942957
0000a0 73 52 c8 3e b6 85 7c be 4d c5 d2 be 06 3f 00 be
       0.39125404 -0.24660382 -0.41166154 -0.12524042
0000b0 67 67 68 bd 1b 30 1e be 63 22 ae 3e b6 6d 59 be
       -0.056739237 -0.15448038 0.3401061 -0.21233258
0000c0 a1 93 9f be 39 0f 28 3d 3b 34 c2 be aa 90 9c be
       -0.3116732 0.041030142 -0.37930474 -0.3057912
0000d0 3c ca 80 3e 7e d6 fc 3d 08 32 62 3d 34 bd cd 3e
       0.25154293 0.12345599 0.055223495 0.40183413
0000e0 fd f6 49 be 9f 46 11 3e cf 86 10 be e4 4b 8e be
       -0.19723125 0.14187096 -0.14113925 -0.27792275
0000f0 32 9a 52 3e bf 8d d0 be 24 16 83 3e 9a eb 0f be
       0.20566633 -0.40733144 0.2560283 -0.14054719
000100 63 7c 41 be 0b f9 08 3d 1c a9 35 3e 33 e4 be bd
       -0.18895106 0.03344063 0.17740291 -0.09320869
000110 3e af ae 3e 86 e6 ab 3e 8e ea 51 bd 8d 71 90 3c
       0.34118074 0.33574313 -0.05124908 0.01763227
000120 47 93 d7 be 9a 2a 65 3e 30 c1 98 be e8 8f c7 3e
       -0.4210455 0.22379532 -0.2983489 0.3897698
000130 1a e6 7d be 37 97 ab 3d 00 2c 13 be c3 8c 7f 3e
       -0.24794808 0.08378451 -0.14372253 0.2495604
000140 4e b7 61 be fd 70 16 3e db ec 8d 3e 99 1e 47 3e
       -0.22042581 0.14691539 0.2771977 0.19445266
000150 2c 56 24 be 89 11 ca bd ca 08 57 3e 92 30 84 be
       -0.16048497 -0.09866626 0.20999447 -0.25818306
000160 fc ab d8 be e0 0c 8d 3e 67 cf 7d 3e 58 c0 55 be
       -0.42318714 0.27548885 0.24786149 -0.20874155
000170 3b cc 9d 3e 23 25 03 3e e7 ed 98 be 15 06 69 be
       0.30819878 0.12807135 -0.29869005 -0.22756226
000180 d0 7f 68 be 28 98 3c 3e 33 75 cc 3e 74 19 b9 be
       -0.22705007 0.18417418 0.39933166 -0.36152232
000190 00 e6 17 be 2b e2 9f 3e d2 ae 34 be 43 2f 2f be
       -0.14833832 0.3122724 -0.17644814 -0.17107873
0001a0 24 d5 65 3e 60 3e a1 be b4 39 9f be fc 2b 83 be
       0.22444588 -0.314929 -0.31098711 -0.25619495
0001b0 53 b2 a9 3e 3a 1b 99 3c 18 88 31 be 75 dd 3a be
       0.33143863 0.01868974 -0.17337072 -0.18248542
0001c0 69 af 54 3e 19 61 ca be 6d 90 83 be 71 6d 86 be
       0.20770039 -0.39527205 -0.25696126 -0.26255372
0001d0 0a 10 86 be ae cd 28 3e 62 91 c7 be c8 c6 a2 be
       -0.26184112 0.1648471 -0.38978106 -0.31792283
0001e0 e3 28 8c be 37 2e 3e 3d 70 45 39 3e 9c 58 92 3d
       -0.27374944 0.046430793 0.18092895 0.07145807
0001f0 91 f1 42 be 12 67 2b 3d cb c6 bd 3e 1c 90 ee bb
       -0.19037463 0.041846342 0.3706573 -0.007280363
000200 4b 78 3f 3e 3a 81 0c be 7a f1 9a be 01 06 59 be
       0.18698232 -0.13721171 -0.30262357 -0.21193697
000210 75 99 95 bd 43 d8 af 3e ce 21 b6 3d 74 ee 96 bd
       -0.0730466 0.34344682 0.088931665 -0.073697
000220 eb b4 db be 90 cf ac be 20 1c 49 3e 45 9a 51 3e
       -0.42911467 -0.33752108 0.19639635 0.20469005
000230 98 1e 57 3e 2e ce e9 bd f5 23 48 3d 92 a3 88 be
       0.21007764 -0.11416279 0.048862416 -0.26687294
000240 5b b8 47 be b1 ea ad bd 5e 69 b7 3e 25 7d 8a bd
       -0.1950392 -0.084920295 0.35822576 -0.06762151
000250 fb b7 02 3d 89 fa 42 3e cf f2 69 be 66 66 74 3e
       0.03191374 0.19040884 -0.2284653 0.23867187
000260 94 e0 70 be af 06 89 be c4 58 fe bd c7 88 cb be
       -0.2352317 -0.26762912 -0.124192744 -0.3975279
000270 aa 9d 9e be f9 37 77 3e 89 1f bd 3e 86 04 3a 3d
       -0.30979663 0.24142446 0.36938122 0.04541447
000280 63 12 be be 01 46 a7 3d 31 91 d4 3d 22 d9 7f be
       -0.37123403 0.08167649 0.103792556 -0.24985173
000290 f1 82 59 be 1d 90 5f be 9b 7e b6 3e 11 1a c6 3d
       -0.21241356 -0.21832319 0.35643467 0.096729405
0002a0 32 48 43 3e a8 c9 0d 3e 73 c8 9a be 33 ca 97 3e
       0.19070509 0.13846457 -0.30231056 0.29646453
0002b0 c9 c3 c4 be 3c c5 8b 3e 1d 7b 24 be 28 6e fa bd
       -0.38430622 0.27298915 -0.16062589 -0.12228042
0002c0 e9 ad 79 be 47 9e a5 bd cf ca 9d bd 28 c5 d2 be
       -0.24382748 -0.0808683 -0.07704698 -0.41166043
0002d0 09 22 9c be 99 ba a4 be 4b 52 c5 3e 34 53 20 3e
       -0.30494717 -0.32173613 0.38539347 0.1565674
0002e0 71 23 d9 3e 29 17 f2 3d a5 98 b9 3c 5e e5 05 3e
       0.42409852 0.11820824 0.022655794 0.13075778
0002f0 71 0e f9 bd af a0 c3 3e af b1 47 be 80 76 0a be
       -0.121609576 0.3820853 -0.19501375 -0.13521767
000300 65 ff 21 3f e3 c4 40 be c3 cd dc 3e 92 1d 20 3f
       0.63280326 -0.18825106 0.43125734 0.6254512
000310 f1 a1 c1 bd 5d d6 2a be db 51 43 be 71 5a 9d be
       -0.09454716 -0.16683336 -0.19074194 -0.30733064
000320 a6 17 70 be e2 b5 0d be cd 74 b4 bd 4a 85 40 bd
       -0.23446521 -0.13838914 -0.088113405 -0.047002114
000330 d1 bf 88 3e 98 9d 4b 3e f7 a3 3b be af 74 23 3f
       0.26708844 0.19884336 -0.18324266 0.6384992
000340 15 39 b6 3e 73 bf b6 3e 27 6b cb bd 43 d5 cd be
       0.35590425 0.3569294 -0.09932547 -0.40201768
000350 df 33 ad be 63 da 2b 3e 49 29 ee be 7c 63 7b bd
       -0.33828637 0.16782527 -0.46515873 -0.061374173
000360 c8 04 12 3e 82 80 35 be 0a d8 b1 bb 5b 8a c5 be
       0.14259636 -0.17724803 -0.005427365 -0.3858212
000370 b4 86 15 bd 6e 50 9c be 1c ce 9e 3e a3 cb 90 3e
       -0.036505416 -0.30530113 0.31016624 0.28280362
000380 1a b7 9e bc 29 57 a1 3e c7 50 ad be 41 98 14 3e
       -0.019374419 0.3151181 -0.3385069 0.14511205
000390 88 b2 4e be fa 87 5e be 65 f8 9c be ee cd 39 be
       -0.20185292 -0.21731558 -0.3065826 -0.18144962
0003a0 89 99 c6 bc 2b a6 3d 3e c4 66 b9 3e 15 f7 ab be
       -0.024243133 0.1852042 0.36211216 -0.33586946
0003b0 70 b4 15 3e ec ce c9 3e 5b 46 6b 3e da 69 7b bd
       0.14619613 0.3941568 0.22976057 -0.061380245
0003c0 ae 93 10 3f 85 a9 b6 be f5 06 60 3e 40 fd 2f 3f
       0.5647534 -0.35676208 0.21877654 0.68745804
0003d0 8e 54 63 3e 27 40 09 3e 7e b6 b5 3d 08 b6 48 be
       0.22200224 0.13403378 0.08872698 -0.1960069
0003e0 72 fe 59 be 9f 70 dc 3e 12 39 31 be 9c 96 a2 3e
       -0.2128847 0.43054673 -0.17306927 0.3175553
0003f0 a4 08 16 3f 4f 2d 8f 3e 23 87 34 3e 63 29 b2 3e
       0.58606935 0.27964255 0.17629676 0.347972

lin.weight f4 [2, 16]
000000 12 5c 29 3e e8 2a 4e be 0c fb b9 bd f0 5c d2 bd
       0.16539028 -0.20133555 -0.090810865 -0.10271633
000010 46 18 cd bd ab b5 5f be b8 13 75 3d 28 c6 cb 3d
       -0.100143954 -0.21846645 0.05983326 0.09949905
000020 0e 84 48 3e cc 2e 09 3e 38 a7 b6 3d 00 56 6c ba
       0.19581625 0.13396758 0.08918613 -0.00090155005
000030 7e d5 99 be b9 d7 57 3e 6e bd 6a be de 7c c2 be
       -0.30045694 0.21078385 -0.22923824 -0.3798589
000040 20 f7 a2 bd 15 10 cc 3d 26 cf 7f 3e c8 0a 92 3d
       -0.079572916 0.09964005 0.24981365 0.071309626
000050 0a 1d 0c bc 72 66 aa bc 30 84 d9 3d 98 b6 85 3d
       -0.008551845 -0.020800803 0.10620916 0.065289676
000060 98 c2 7c 3d 02 d5 4a bd 8a 9f 34 3e 84 27 c8 3d
       0.061709017 -0.049519546 0.17638984 0.09773162
000070 fa d8 f2 3e bc 25 d1 bd 9e 2e c9 bc e3 08 8f 3e
       0.47431165 -0.102122754 -0.024558362 0.27936468

lin.bias f4 [2]
000000 aa 30 c9 bd 79 50 e0 3d
       -0.09823735 0.10952849
