backend/gnn_trained.pth (torch, 4080 bytes, 6 tensors)

conv1.bias f4 [16]
0.25576672 0.0 0.0 0.0 0.0 -0.111410215 0.0 0.0
0.0 0.19095525 0.24846683 0.0 0.0 0.0 0.0 0.0
00000000: dbf3 823e 0000 0000 0000 0000 0000 0000
00000010: 0000 0000 0a2b e4bd 0000 0000 0000 0000
00000020: 0000 0000 c689 433e 176e 7e3e 0000 0000
00000030: 0000 0000 0000 0000 0000 0000 0000 0000

conv1.lin.weight f4 [16, 1]
0.22232898 -0.1621111 -0.2784057 -0.1283049 -0.11912277 0.013424653 -0.06140387 -0.49774107
-0.52459097 0.40270925 0.6288792 -0.015015602 -0.39871734 -0.53951865 -0.53683054 -0.101944745
00000000: 35aa 633e 7400 26be 318b 8ebe 5c62 03be
00000010: a4f6 f3bd 13f3 5b3c a082 7bbd ebd7 febe
00000020: 984b 06bf e82f ce3e 3afe 203f 0004 76bc
00000030: ae24 ccbe e51d 0abf ba6d 09bf 68c8 d0bd

conv2.bias f4 [16]
0.2128196 0.20445399 0.22685608 0.0 0.0 0.0 0.20393355 0.24057686
0.2379856 0.0 -0.04355453 -0.09067283 -0.008553456 0.24674083 0.23832914 0.0
00000000: 62ed 593e 635c 513e f64c 683e 0000 0000
00000010: 0000 0000 0000 0000 f5d3 503e c859 763e
00000020: 7fb2 733e 0000 0000 3c66 32bd adb2 b9bd
00000030: cb23 0cbc a1a9 7c3e 8e0c 743e 0000 0000

conv2.lin.weight f4 [16, 16]
0.6000058 -0.32468224 0.39917937 -0.4224031 -0.19926788 -0.13831234 -0.07258627 0.109987944
-0.3514943 -0.042006947 0.26188982 0.07487014 0.1498433 -0.056017667 0.16493228 -0.33469275
0.34368438 -0.03180179 -0.42645696 -0.3600778 -0.081318736 -0.24770701 0.2851214 0.04347554
-0.36987036 -0.10963678 0.45563906 -0.40068224 -0.20243193 -0.24540433 0.22457722 0.099225014
0.66280216 -0.05931014 -0.18755297 -0.08529204 0.35578617 -0.2989869 0.2057285 0.3869796
-0.12564433 0.21003444 0.089495406 -0.21794404 0.044729173 0.091135055 -0.053631455 0.19833532
-0.051805943 0.37344983 -0.10707414 0.14152387 -0.3626861 0.03288123 0.35440943 0.22159675
0.34770522 -0.17839211 -0.41848722 -0.36291376 0.1436325 -0.19728473 -0.055636138 -0.17014983
-0.14605692 0.21066043 -0.015234858 -0.10083711 -0.22022194 0.07305798 0.13294676 -0.22407402
-0.21555434 0.3999119 -0.34142673 0.07973084 0.028848946 -0.13542274 0.11308125 -0.27268976
-0.06530085 -0.20905358 0.25488755 -0.2961982 -0.33166662 -0.024602711 0.0071725845 -0.0860205
-0.42374828 -0.028612077 0.004150957 -0.4167918 0.15142152 0.38592634 0.42466703 -0.27222592
0.021282293 -0.42511445 0.404996 0.14545831 -0.12485477 0.087788515 -0.30541313 0.062334687
0.055784225 0.33897755 0.52798927 0.3323196 0.27094224 0.23643723 0.105431646 0.077996284
0.6289828 0.1914325 0.06335226 0.38605866 -0.02689305 -0.26823658 -0.3778021 0.052930683
0.123776466 0.15372863 0.2628498 0.39692214 -0.38361168 -0.03163618 0.05112499 0.08423868
0.5359048 0.22259608 0.357788 0.27929178 0.19249728 0.22102205 -0.19362968 0.35973224
0.39859757 0.12405923 0.08815215 0.28130856 0.3137786 0.20092538 -0.3758335 -0.20238304
-0.058015972 -0.3580093 0.1456252 0.2889836 0.12008777 -0.19509096 0.3417906 0.24222282
-0.37162814 -0.36151767 -0.15005317 0.032801896 -0.25996512 -0.29923135 -0.19023107 0.29206583
-0.23415485 -0.29803935 -0.14263529 -0.12140703 -0.3499557 0.3126026 0.10566124 0.05542335
-0.2230647 0.38192528 -0.21882439 -0.023152977 0.26860908 -0.101524144 0.19313106 -0.27369127
-0.066389866 -0.0899398 0.17742857 -0.096166074 0.009886444 0.029293835 0.37674424 -0.12110737
0.31951144 -0.11468462 0.20690672 -0.30015728 -0.22763285 -0.14961284 0.0629656 0.31091163
0.06024465 0.1356248 -0.029548556 0.010977209 0.08956227 -0.31749088 0.25437167 -0.33865207
0.015842527 0.020636287 -0.04749852 0.2016057 -0.39686057 -0.005187869 -0.36364004 0.15697506
0.00084095506 -0.09458035 0.17669919 -0.06411287 0.39511707 -0.19914904 -0.39201957 -0.2277124
-0.011100173 0.3586322 0.42821684 -0.0044083893 0.24249998 0.27929935 0.1367276 0.03461036
0.4210902 0.22585848 0.33522967 0.056501895 -0.26440138 0.026565121 -0.19639894 0.30818537
0.04584554 0.25136897 -0.123060636 -0.31613785 0.34515086 0.4078118 -0.2558303 0.38099608
-0.22187877 0.1157175 -0.37851638 -0.17127135 0.30953148 -0.36617416 -0.19161813 -0.006551087
0.01502952 -0.33888268 -0.38798615 0.15206066 -0.41067043 -0.17309353 0.20549169 0.10685238
00000000: fb99 193f c03c a6be 3d61 cc3e 3845 d8be
00000010: e10c 4cbe c0a1 0dbe 1ca8 94bd 5c41 e13d
00000020: 10f7 b3be 7a0f 2cbd 6c16 863e 8455 993d
00000030: 8670 193e c872 65bd 02e4 283e d95c abbe
00000040: 66f7 af3e 9842 02bd 9158 dabe 1e5c b8be
00000050: 708a a6bd e8a6 7dbe 6ffb 913e 6813 323d
00000060: a65f bdbe 4089 e0bd 8649 e93e 3926 cdbe
00000070: 514a 4fbe 464b 7bbe 92f7 653e 7c36 cb3d
00000080: 67ad 293f 30ef 72bd e30d 40be 98ad aebd
00000090: 9b29 b63e d014 99be 7eaa 523e 3122 c63e
000000a0: e8a8 00be 4513 573e 5e49 b73d b92c 5fbe
000000b0: f035 373d 04a5 ba3d a8ac 5bbd 6a18 4b3e
000000c0: 7832 54bd d134 bf3e b049 dbbd a2eb 103e
000000d0: feb1 b9be 78ae 063d 2775 b53e 42ea 623e
000000e0: 6b06 b23e 6cac 36be f543 d6be d5cf b9be
000000f0: 6614 133e 0205 4abe b8e2 63bd c23b 2ebe
00000100: f28f 15be 5eb7 573e a09b 79bc b083 cebd
00000110: dc81 61be 6c9f 953d 3223 083e a973 65be
00000120: 47ba 5cbe 41c1 cc3e 7ccf aebe ec49 a33d
00000130: a054 ec3c 42ac 0abe 2497 e73d fe9d 8bbe
00000140: 74bc 85bd 2412 56be 9f80 823e 4aa7 97be
00000150: 35d0 a9be a08b c9bc 0008 eb3b 842b b0bd
00000160: 89f5 d8be e063 eabc c004 883b bc65 d5be
00000170: 3e0e 1b3e 2398 c53e f56d d93e 3261 8bbe
00000180: 3458 ae3c 9aa8 d9be a35b cf3e 06f3 143e
00000190: dcb3 ffbd 77ca b33d 1c5f 9cbe a852 7f3d
000001a0: 007e 643d 778e ad3e 4e2a 073f cb25 aa3e
000001b0: f1b8 8a3e 9a1c 723e 8cec d73d 84bc 9f3d
000001c0: 0405 213f e206 443e d4be 813d 7ba9 c53e
000001d0: d04e dcbc 4e56 89be 476f c1be d8cd 583d
000001e0: 847e fd3d 0a6b 1d3e 4094 863e 6139 cb3e
000001f0: c068 c4be f094 01bd 7068 513d 5485 ac3d
00000200: 0f31 093f 3af0 633e fd2f b73e 55ff 8e3e
00000210: 021e 453e 9b53 623e dc46 46be d32e b83e
00000220: fb14 cc3e c412 fe3d 1d89 b43d ad07 903e
00000230: 97a7 a03e 62bf 4d3e 406d c0be 803d 4fbe
00000240: 28a2 6dbd ff4c b7be c61e 153e a9f5 933e
00000250: 94f0 f53d edc5 47be 2dff ae3e 4209 783e
00000260: 0b46 bebe d818 b9be 8aa7 19be 485b 063d
00000270: 261a 85be da34 99be efcb 42be a789 953e
00000280: 4ac6 6fbe 9d98 98be fc0e 12be 40a4 f8bd
00000290: 652d b3be 730d a03e ec64 d83d 9803 633d
000002a0: 136b 64be b68b c33e 8013 60be 50ab bdbc
000002b0: 2187 893e e4eb cfbd 26c4 453e 4321 8cbe
000002c0: 69f7 87bd 5c32 b8bd d6af 353e b8f2 c4bd
000002d0: c0fa 213c a0f9 ef3c 9fe4 c03e 2407 f8bd
000002e0: 0197 a33e c5df eabd 5bdf 533e 37ae 99be
000002f0: 9618 69be 1c34 19be 1cf4 803d cf2f 9f3e
00000300: 18c3 763d 3ae1 0a3e d00f f2bc c0d9 333c
00000310: 6c6c b73d 2a8e a2be 013d 823e ce63 adbe
00000320: 30c8 813c 6e0d a93c cf8d 42bd ba71 4e3e
00000330: 4f31 cbbe 00ff a9bb 072f babe 12be 203e
00000340: 8a73 5c3a 58b3 c1bd a2f0 343e 9c4d 83bd
00000350: c94c ca3e baed 4bbe cab6 c8be 702d 69be
00000360: 80dd 35bc a49e b73e 3d3f db3e 4074 90bb
00000370: ea51 783e 5300 8f3e 5202 0c3e 98c3 0d3d
00000380: 2299 d73e 7247 673e 39a3 ab3e 886e 673d
00000390: 9e5f 87be 199f d93c ce1c 49be 79ca 9d3e
000003a0: 88c8 3b3d 6fb3 803e 3707 fcbd d2dc a1be
000003b0: 9db7 b03e b5cc d03e 30fc 82be eb11 c33e
000003c0: 3034 63be 4cfd ec3d e6cc c1be c261 2fbe
000003d0: e97a 9e3e 2e7b bbbe 8b37 44be 80aa d6bb
000003e0: 603e 763c 0882 adbe 1fa6 c6be cab5 1b3e
000003f0: 6543 d2be 6e3f 31be 6a6c 523e 6cd5 da3d

lin.weight f4 [2, 16]
-0.43208447 -0.2967838 -0.32569063 -0.10964161 0.07504198 0.10330981 -0.31829476 -0.3777785
-0.38836667 0.2119739 -0.11258485 0.011421734 0.13056599 -0.19465978 -0.14202392 0.13546744
0.38761193 0.46358204 0.51204056 -0.025110394 0.08362809 0.1084612 0.1814318 0.121652804
0.31588447 0.09327012 -0.13573131 -0.033613484 -0.11786745 0.19107188 0.27498376 0.20994258
00000000: 2d3a ddbe 0cf4 97be ecc0 a6be c88b e0bd
00000010: 9caf 993d 1894 d33d 88f7 a2be 2f6c c1be
00000020: ffd7 c6be b00f 593e e392 e6bd 3922 3b3c
00000030: 17b3 053e e554 47be b86e 11be fab7 0a3e
00000040: 1275 c63e a05a ed3e 1715 033f 50b4 cdbc
00000050: 3445 ab3d e820 de3d 42c9 393e 1b25 f93d
00000060: 9cbb a13e 6804 bf3d 26fd 0abe 4bae 09bd
00000070: 7d64 f1bd 59a8 433e acca 8c3e 30fb 563e

lin.bias f4 [2]
-0.07626446 0.24361894
00000000: 8b30 9cbd 3e77 793e
